diabetes.pt (torch, 5663 bytes, 6 tensors)

weight f4 [20, 8]
0.59768325 -0.6723155 0.21197867 -0.01968006 -0.65325034 0.3962004 0.5737444 0.04349706
-0.2089906 0.26857412 -0.33549523 -0.17101473 0.23689386 -0.20025647 0.16409233 0.114446916
-0.16758929 -0.09890664 0.057966407 -0.40520418 0.075107954 -0.1735849 0.3146504 -0.25956166
-0.4416394 -0.019866027 0.15642552 0.14963499 0.018013805 0.19644727 -1.4738429 -0.38531673
0.26417264 -0.10538086 -0.121722244 -0.12343518 -0.18394393 -0.015384906 -0.19067895 0.10261755
-0.42807132 0.2384242 -0.106070854 0.013966947 0.091998026 -0.28220668 -1.3047235 -0.5683658
-0.6448473 -0.3836329 -0.27075276 -0.15962642 0.111492656 0.37026793 -1.7448084 0.50865614
-0.11136668 0.2787029 -0.14874083 0.26873565 0.2204653 -0.15732843 0.36380392 0.25094673
-0.43795392 0.11010811 -0.3666645 0.21477437 0.03933104 -0.3852 0.7143455 0.45407397
-0.06339969 0.15789038 0.07412981 -0.36337095 -0.014295014 -0.31931975 -1.366291 0.2586896
-0.17222412 -0.440968 0.2994792 0.24480571 0.132807 -0.20719275 1.3489218 -0.8390726
-0.13523807 0.27867723 -0.3955641 -0.57318026 -0.13205087 0.21867582 -0.4420847 -0.2274364
0.6568451 0.15750466 -0.33437356 0.36372676 0.20309217 -0.11257816 -0.5382393 -0.3107928
0.042436264 -0.24561766 0.35005233 0.27670336 -0.07859306 -0.30112123 -0.7592456 0.21139576
-0.6934861 -0.0070924163 0.07631134 0.2697012 0.28230014 -0.30623692 0.9376822 -0.32356393
-0.28903362 0.32314402 0.028765803 0.15363756 -0.20389208 0.10342826 0.7391355 0.24012548
-0.21761946 0.22345182 0.010620251 0.030266706 -0.118138924 -0.2289917 -0.81339496 0.28179288
0.10648157 -0.24656753 0.032443337 -0.045393545 0.07644384 -0.13876458 0.21923433 -0.29843345
0.03309066 -0.17715348 0.26810205 -0.31084016 0.080304034 0.3125535 -1.504126 -0.22386144
0.62013704 -0.17204034 0.19977807 -0.15404274 0.084531724 0.0951798 1.0535688 -0.09810817
00000000: c501 193f de1c 2cbf f010 593e 1438 a1bc
00000010: 6a3b 27bf c7da ca3e eae0 123f f929 323d
00000020: a201 56be 8c82 893e 08c6 abbe 7c1e 2fbe
00000030: 4e94 723e 0810 4dbe d207 283e 2563 ea3d
00000040: 879c 2bbe 918f cabd 2f6e 6d3d ec76 cfbe
00000050: 33d2 993d 3dc0 31be db19 a13e 44e5 84be
00000060: 8f1e e2be 14be a2bc 032e 203e ea39 193e
00000070: b091 933c 7929 493e e2a6 bcbf 3c48 c5be
00000080: a341 873e ecd1 d7bd 8349 f9bd 95cb fcbd
00000090: cc5b 3cbe f910 7cbc 5841 43be 2629 d23d
000000a0: 2a2c dbbe 7925 743e ad3b d9bd 9fd5 643c
000000b0: 7669 bc3d 657d 90be 2e01 a7bf 6c80 11bf
000000c0: b614 25bf 886b c4be 1ba0 8abe 1c75 23be
000000d0: 4356 e43d c293 bd3e e255 dfbf 4a37 023f
000000e0: 3714 e4bd 26b2 8e3e 844f 18be b897 893e
000000f0: a8c1 613e b41a 21be 8244 ba3e 177c 803e
00000100: 7f3b e0be 5c80 e13d 73bb bbbe d0ed 5b3e
00000110: 9619 213d ef38 c5be 59df 363f 627c e83e
00000120: b2d7 81bd 04ae 213e 5fd1 973d c20b babe
00000130: a235 6abc e17d a3be a0e2 aebf f772 843e
00000140: 855b 30be 8fc6 e1be 5655 993e 59ae 7a3e
00000150: 8ffe 073e 562a 54be 78a9 ac3f 76cd 56bf
00000160: d97b 0abe c8ae 8e3e 6187 cabe f1bb 12bf
00000170: 5838 07be 8eec 5f3e ed58 e2be 16e5 68be
00000180: 0027 283f e748 213e 0333 abbe 653a ba3e
00000190: 65f7 4f3e 618f e6bd 0dca 09bf 3c20 9fbe
000001a0: a6d1 2d3d 3283 7bbe 0f3a b33e 10ac 8d3e
000001b0: 66f5 a0bd 902c 9abe eb5d 42bf 2178 583e
000001c0: 4e88 31bf 8067 e8bb 1f49 9c3d 4716 8a3e
000001d0: a589 903e 16cb 9cbe f10b 703f 2caa a5be
000001e0: 37fc 93be 2273 a53e 43a6 eb3c 2a53 1d3e
000001f0: 16c9 50be 32d2 d33d fc37 3d3f 74e3 753e
00000200: a3d7 5ebe 8ed0 643e 9000 2e3c e2f1 f73c
00000210: d2f2 f1bd cd7c 6abe a73a 50bf 2847 903e
00000220: 0213 da3d 337c 7cbe 4ee3 043d 95ee 39bd
00000230: 978e 9c3d 4d18 0ebe f77e 603e 45cc 98be
00000240: 128a 073d b967 35be ac44 893e 7126 9fbe
00000250: 7176 a43d 0307 a03e 3387 c0bf ef3b 65be
00000260: 4dc1 1e3f 582b 30be 9f92 4c3e 61bd 1dbe
00000270: f81e ad3d a1ed c23d 58db 863f f0ec c8bd

bias f4 [20]
-0.18136512 -1.254162 -0.34442684 1.8735584 0.08032835 0.30746648 -0.59350866 0.3681653
0.9130553 1.8598312 0.100609526 0.38843346 -0.1901577 1.5655782 -0.5391243 -1.19943
1.248156 -0.05520828 2.1715229 -0.29639566
00000000: c7b7 39be 6188 a0bf b758 b0be c3d0 ef3f
00000010: 3183 a43d 3f6c 9d3e 2ff0 17bf 2a80 bc3e
00000020: febd 693f f30e ee3f 5e0c ce3d c0e0 c63e
00000030: b3b8 42be de64 c83f 0d04 0abf ec86 99bf
00000040: 93c3 9f3f 1422 62bd 3bfa 0a40 2cc1 97be

weight f4 [20, 20]
-0.26808187 -0.016961567 0.06891568 0.22947654 -0.1800132 0.0747847 -0.52734715 0.11641965
-0.13479333 0.14991345 1.263921 0.2222814 0.013524812 0.05026359 0.089159936 -0.15607937
0.1884675 -0.11944218 -0.06806965 0.19002238 0.12421393 -0.029873148 0.13068376 0.16567627
0.09506206 0.21796222 -0.10619986 0.035480153 -0.19411105 0.08049508 0.68846065 0.40808296
0.06394075 -0.0554206 -0.19623412 -0.05598966 0.08961712 -0.15591197 0.28573865 -0.053591665
0.021811444 0.059231233 -0.044343825 0.04141777 0.20327403 0.0030119163 0.099812835 -0.26278177
-0.10445133 -0.15341236 0.14848824 0.19023374 -0.06361614 0.041192763 0.08667738 -0.14331238
0.017064292 0.16119269 -0.20127495 -0.21146174 -0.31202888 0.026775511 0.039913755 -0.16461283
0.142566 -0.28010884 -0.110576235 -0.17411982 0.06440526 -0.3430799 0.18884397 -0.32613528
-0.066902764 -0.15544114 -0.08093789 0.09393474 -0.02228207 0.047580067 0.061803177 0.06577926
0.4591331 -0.05860418 -0.0983363 -0.11849963 -0.18264818 -0.66373646 0.6884691 0.16151214
-1.1800598 -0.11180062 -0.8197286 0.042792782 -0.2625415 0.027708508 0.2148253 -0.05402777
-0.15155365 -0.011349488 -0.01833517 0.1312076 0.4384569 0.030117849 -0.055962086 -0.19308327
-0.005794616 0.09506996 0.40354845 0.18406922 0.07899994 0.028748643 -0.9058629 -0.15399125
-0.17088667 0.1439623 -0.097544454 0.09508614 0.054465488 -0.16257675 -0.04303417 0.023949891
-0.15620703 -0.024110995 0.01481796 -0.13060457 0.10578479 -0.03835635 -0.5268277 0.19548833
0.0300758 -0.08381879 1.0507331 0.12766917 -0.09298369 -0.181599 -0.025776505 -0.12903515
0.14894451 0.1551468 0.24734809 0.12673047 0.19646621 0.046238847 -0.029995391 0.2867123
-0.12302731 -0.20693357 -1.9048777 -0.27987033 0.11075166 -0.026391778 0.38067448 -0.06840446
-0.25241882 -0.22467645 -0.2668052 0.14962968 -0.15929873 -0.10309565 -0.111849576 0.13975415
0.32046786 -0.22156844 -0.010765196 -0.0057575293 -0.18361723 0.10924646 -0.32097295 -0.2120233
0.06982231 -0.01723711 0.29054922 -0.3156839 -0.0519583 -0.043832272 0.04892725 0.10278708
-0.15746404 -0.0512969 -0.07184263 -0.19702968 -0.107201666 -0.01685238 -0.10209309 -0.013494921
-0.1781485 -0.07593257 -0.112255484 -0.26215777 0.11933372 -0.0507601 0.14114445 0.11085445
0.035171535 0.14343244 -0.16285597 -0.061873034 -0.23444445 0.19816314 -0.04854225 -0.21383229
-0.41949347 -0.81168383 -0.18381537 -0.34084785 -0.17340694 -0.2815721 1.782027 -0.281461
0.028227538 0.19894795 0.66729087 -0.0754778 -0.23200744 0.40432453 0.18698597 -0.013603661
-0.07644771 -0.19230933 0.26375473 0.6807842 -0.05647792 0.016214533 0.12905364 -0.018694712
0.17586951 0.15403768 -0.2549161 0.1913438 0.051533747 -0.103143804 0.88466877 0.059676997
0.1833615 0.7959887 0.047696587 -0.2179546 -0.11276771 -0.1591304 -0.08545351 -0.21099581
0.0014761502 0.0012229049 0.040447585 -0.29366684 -0.17202726 0.017307373 0.45996138 0.15196028
-0.08230217 -0.021252682 -0.7594712 -0.15266538 0.105921626 0.18230166 0.07336818 0.099779114
00000000: 0742 89be fcf2 8abc aa23 8d3d e6fb 6a3e
00000010: 6155 38be b928 993d 3900 07bf 6d6d ee3d
00000020: 4307 0abe e982 193e 2ac8 a13f bc9d 633e
00000030: 2c97 5d3c 32e1 4d3d 7c99 b63d 45d3 1fbe
00000040: a0fd 403e 1a9e f4bd 1a68 8bbd 3a95 423e
00000050: df63 fe3d 88b8 f4bc f7d1 053e 0aa7 293e
00000060: e6af c23d 7d31 5f3e 507f d9bd a353 113d
00000070: 0cc5 46be 9bda a43d f53e 303f 40f0 d03e
00000080: 5ef3 823d b600 63bd 99f1 48be 6a55 65bd
00000090: 2e89 b73d 63a7 1fbe 564c 923e ef82 5bbd
000000a0: eaad b23c 739c 723d dfa1 35bd aea5 293d
000000b0: 1127 503e 9263 453b ac6a cc3d 558b 86be
000000c0: 94ea d5bd 2118 1dbe 4d0d 183e a2cc 423e
000000d0: 2e49 82bd beb9 283d e983 b13d 7bc0 12be
000000e0: 6aca 8b3c b20f 253e 051b 4ebe 6d89 58be
000000f0: 40c2 9fbe 5158 db3c 9b7c 233d 4490 28be
00000100: d2fc 113e 6d6a 8fbe cb75 e2bd 774c 32be
00000110: e8e6 833d 2ba8 afbe 5060 413e 34fb a6be
00000120: 5104 89bd f62b 1fbe c4c2 a5bd db60 c03d
00000130: e388 b6bc 51e3 423d 5425 7d3d 47b7 863d
00000140: 7e13 eb3e f00a 70bd 8b64 c9bd efaf f2bd
00000150: 2008 3bbe a2ea 29bf 833f 303f 7063 253e
00000160: 330c 97bf b9f7 e4bd bcd9 51bf 7c47 2f3d
00000170: d76b 86be f4fc e23c 2afb 5b3e 394c 5dbd
00000180: e130 1bbe 34f3 39bc a333 96bc 495b 063e
00000190: 6c7d e03e b5b9 f63c 8038 65bd 9fb7 45be
000001a0: c3e0 bdbb 0ab4 c23d e79d ce3e a47c 3c3e
000001b0: b8ca a13d 4682 eb3c a2e6 67bf e2af 1dbe
000001c0: eafc 2ebe da6a 133e 63c5 c7bd 86bc c23d
000001d0: 3417 5f3d 857a 26be 9944 30bd 9032 c43c
000001e0: bcf4 1fbe 6c84 c5bc 07c7 723c 34bd 05be
000001f0: b2a5 d83d 8c1b 1dbd 2ede 06bf 182e 483e
00000200: 8661 f63c 30a9 abbd 6c7e 863f b5bb 023e
00000210: 3c6e bebd 17f5 39be 4029 d3bc ca21 04be
00000220: e984 183e cede 1e3e d148 7d3e a2c5 013e
00000230: 702e 493e f264 3d3d e5b8 f5bc f4cb 923e
00000240: bef5 fbbd 65e6 53be 08d3 f3bf 2a4b 8fbe
00000250: c4d1 e23d 9233 d8bc c4e7 c23e a317 8cbd
00000260: 0a3d 81be 9511 66be b19a 88be 8638 193e
00000270: 351f 23be d023 d3bd 6411 e5bd b61b 0f3e
00000280: 5d14 a43e d6e2 62be 8160 30bc a8a9 bcbb
00000290: 2806 3cbe 9cbc df3d 9156 a4be a31c 59be
000002a0: 00ff 8e3d d734 8dbc dec2 943e 52a1 a1be
000002b0: 3ad2 54bd 7889 33bd f167 483d 0882 d23d
000002c0: 413e 21be b31c 52bd 3b22 93bd 26c2 49be
000002d0: 8c8c dbbd 010e 8abc 2f16 d1bd cd19 5dbc
000002e0: 8f6c 36be 8982 9bbd 34e6 e5bd 8b39 86be
000002f0: 3d65 f43d d3e9 4fbd 2c88 103e a807 e33d
00000300: 0710 103d f4df 123e b7c3 26be 946e 7dbd
00000310: 3512 70be 47eb 4a3e 3dd4 46bd daf6 5abe
00000320: d9c7 d6be 83ca 4fbf 193a 3cbe 9c83 aebe
00000330: 9791 31be 382a 90be 7619 e43f a81b 90be
00000340: 703d e73c 03b9 4b3e 93d3 2a3f 1b94 9abd
00000350: 5c93 6dbe a003 cf3e 4079 3f3e e4e1 5ebc
00000360: 9e90 9cbd bdec 44be dc0a 873e e047 2e3f
00000370: 6455 67bd 57d4 843c a326 043e a725 99bc
00000380: 2317 343e 0ebc 1d3e 5d84 82be a1ef 433e
00000390: 0d15 533d 0f3d d3bd a779 623f de6f 743d
000003a0: 1ec3 3b3e eac5 4b3f 7f5d 433d 7e2f 5fbe
000003b0: c2f2 e6bd 14f3 22be 4002 afbd 490f 58be
000003c0: 627b c13a e149 a03a 5eac 253d 805b 96be
000003d0: ea27 30be 31c8 8d3c 0f80 eb3e 7a9b 1b3e
000003e0: 0a8e a8bd 1b1a aebc b46c 42bf 5054 1cbe
000003f0: 70ed d83d 49ad 3a3e 0e42 963d fe58 cc3d

bias f4 [20]
0.964881 1.2652167 -0.08571006 -0.17796023 -1.2567012 -0.7826958 0.9591529 -0.2153852
-0.07559625 -0.16300617 0.22184943 0.77510566 -0.8922395 -0.16989605 -0.43467778 -1.5135981
-1.4169575 -0.14672725 0.11886692 1.3378696
00000000: 7102 773f 9ff2 a13f c288 afbd 353b 36be
00000010: 96db a0bf c05e 48bf 0b8b 753f f08d 5cbe
00000020: 35d2 9abd 17eb 26be 7f2c 633e 536d 463f
00000030: cf69 64bf 3bf9 2dbe 168e debe 95bd c1bf
00000040: dd5e b5bf ab3f 16be 8070 f33d 503f ab3f

weight f4 [2, 20]
0.10389865 0.30776736 -0.14511763 0.14609247 -0.82005566 0.018545214 -0.04003838 0.11780315
0.26685026 -0.10186874 0.5097946 0.086320445 -0.22199123 0.018267613 0.009985618 -0.1356048
-0.14238222 -0.06149941 0.055825554 0.32251987 -0.09497123 0.06389948 -0.096136354 0.055473376
0.50590336 0.20051277 -0.1261843 0.083018266 0.15127435 -0.16168788 -0.56180644 -0.13983281
0.07863577 0.034161072 0.084759876 0.28014827 0.27433744 0.09325552 0.056279127 -0.2419238
00000000: d1c8 d43d af93 9d3e b799 14be 4499 153e
00000010: 2bef 51bf 22ec 973c 49ff 23bd c742 f13d
00000020: 99a0 883e 8fa0 d0bd e681 023f c6c8 b03d
00000030: ab51 63be f6a5 953c b89a 233c fcdb 0abe
00000040: a5cc 11be cee6 7bbd 56a9 643d 5321 a53e
00000050: 4780 c2bd bbdd 823d 23e3 c4bd 0d38 633d
00000060: e282 013f 3853 4d3e 7536 01be 7b05 aa3d
00000070: aae7 1a3e 8291 25be 8cd2 0fbf 5530 0fbe
00000080: ca0b a13d 7bec 0b3d 9696 ad3d 986f 8f3e
00000090: f575 8c3e c0fc be3d f184 663d dfba 77be

bias f4 [2]
0.91823834 -1.2633382
00000000: ab11 6b3f 11b5 a1bf
